…
                         : Add Tree PDsecondTree of type Background with 149634 events
                         : Add Tree PDsecondTree of type Background with 17650 events
                         : Add Tree PDsecondTree of type Background with 391 events
                         : Add Tree PDsecondTree of type Background with 796013 events
                         : Add Tree PDsecondTree of type Background with 3531318 events
_________________________________________________________________
Layer (type)                 Output Shape              Param #   
=================================================================
dense_1 (Dense)              (None, 200)               5200      
_________________________________________________________________
dropout_1 (Dropout)          (None, 200)               0         
_________________________________________________________________
dense_2 (Dense)              (None, 200)               40200     
_________________________________________________________________
dropout_2 (Dropout)          (None, 200)               0         
_________________________________________________________________
dense_3 (Dense)              (None, 200)               40200     
_________________________________________________________________
dropout_3 (Dropout)          (None, 200)               0         
_________________________________________________________________
dense_4 (Dense)              (None, 200)               40200     
_________________________________________________________________
dropout_4 (Dropout)          (None, 200)               0         
_________________________________________________________________
dense_5 (Dense)              (None, 200)               40200     
_________________________________________________________________
dropout_5 (Dropout)          (None, 200)               0         
_________________________________________________________________
dense_6 (Dense)              (None, 2)                 402       
=================================================================
Total params: 166,402
Trainable params: 166,402
Non-trainable params: 0
_________________________________________________________________
Factory                  : Booking method: [1mDNNGlobalBarrel2017woIPwIso[0m
                         : 
DNNGlobalBarrel2017woI...: [dataset] : Create Transformation "N" with events from all classes.
…
