…
                         : Add Tree PDsecondTree of type Background with 1403375 events
                         : Add Tree PDsecondTree of type Background with 17918 events
                         : Add Tree PDsecondTree of type Background with 24671 events
                         : Add Tree PDsecondTree of type Background with 1059887 events
                         : Add Tree PDsecondTree of type Background with 4251925 events
_________________________________________________________________
Layer (type)                 Output Shape              Param #   
=================================================================
dense_1 (Dense)              (None, 200)               5400      
_________________________________________________________________
dropout_1 (Dropout)          (None, 200)               0         
_________________________________________________________________
dense_2 (Dense)              (None, 200)               40200     
_________________________________________________________________
dropout_2 (Dropout)          (None, 200)               0         
_________________________________________________________________
dense_3 (Dense)              (None, 200)               40200     
_________________________________________________________________
dropout_3 (Dropout)          (None, 200)               0         
_________________________________________________________________
dense_4 (Dense)              (None, 200)               40200     
_________________________________________________________________
dropout_4 (Dropout)          (None, 200)               0         
_________________________________________________________________
dense_5 (Dense)              (None, 200)               40200     
_________________________________________________________________
dropout_5 (Dropout)          (None, 200)               0         
_________________________________________________________________
dense_6 (Dense)              (None, 2)                 402       
=================================================================
Total params: 166,602
Trainable params: 166,602
Non-trainable params: 0
_________________________________________________________________
Factory                  : Booking method: [1mDNNGlobalBarrel2016wIPwoIso[0m
                         : 
DNNGlobalBarrel2016wIP...: [dataset] : Create Transformation "N" with events from all classes.
…
